[net]
batch=128
subdivisions=1
width=104
height=104
channels=3
momentum=0.9
decay=0.0005
angle=0
saturation = 1.5
exposure = 1.5
hue=.1

learning_rate=0.1
burn_in=1000
max_batches = 252000
policy=steps
steps=2000, 15000, 50000, 100000, 200000
scales=.1, .1, .1, .1, .1

[convolutional]
batch_normalize=1
filters=19
size=3
stride=1
pad=1
activation=leaky

[convolutional]
batch_normalize=1
filters=32
size=3
stride=2
pad=1
activation=leaky

[convolutional]
batch_normalize=1
filters=64
size=3
stride=2
pad=1
activation=leaky

[convolutional]
batch_normalize=1
filters=64
size=3
stride=1
pad=1
activation=leaky

[convolutional]
batch_normalize=1
filters=64
size=3
stride=2
pad=1
activation=leaky

[convolutional]
batch_normalize=1
filters=32
size=1
stride=1
pad=1
activation=leaky

[convolutional]
batch_normalize=1
filters=64
size=3
stride=1
pad=1
activation=leaky


[shortcut]
from=-3
activation=linear

[convolutional]
batch_normalize=1
filters=32
size=1
stride=1
pad=1
activation=leaky

[convolutional]
batch_normalize=1
filters=25
size=3
stride=1
pad=1
activation=leaky

[convolutional]
batch_normalize=1
filters=27
size=3
stride=1
pad=1
activation=leaky

[convolutional]
filters=18
size=1
stride=1
pad=1
activation=linear

[yolo]
mask = 3, 4, 5
anchors =3.97,9.20, 9.95,23.40, 17.24,51.31, 32.69,75.13, 40.77,32.17, 70.11,76.74
classes=1
num=9
jitter=.3
ignore_thresh = .5
truth_thresh = 1
random=0

[route]
layers=-4


[convolutional]
batch_normalize=1
filters=25
size=1
stride=1
pad=1
activation=leaky

[upsample]
stride=2

[route]
layers=-1, 3

[convolutional]
batch_normalize=1
filters=25
size=1
stride=1
pad=1
activation=leaky

[convolutional]
batch_normalize=1
filters=32
size=3
stride=1
pad=1
activation=leaky



[convolutional]
batch_normalize=1
filters=27
size=3
stride=1
pad=1
activation=leaky

[convolutional]
filters=18
size=1
stride=1
pad=1
activation=linear

[yolo]
mask = 0, 1, 2
anchors = 3.97,9.20, 9.95,23.40, 17.24,51.31, 32.69,75.13, 40.77,32.17, 70.11,76.74
classes=1
num=9
jitter=.3
ignore_thresh = .5
truth_thresh = 1
random=0
